…
ackend: pytorch
VGAE FRAMEWORK SETING: Namespace(DropOut_rate=0.3, Vis_step=180, batch_norm=True, dataset='citeseer', decoder_type='multi_inner_product', edge_type_visulizer=True, encoder_layers='64', encoder_type='mixture_of_GCNs', epoch_number=200, lr=0.001, mpath='VGAE_FrameWork_MODEL', negative_sampling_rate=1, num_node=-1, num_of_comunities=64, num_of_relations=4, save_embeddings_to_file=False, split_the_data_to_train_test=True, use_feature=True)
GVAE_FrameWork(
  (decoder): MapedInnerProductDecoder(
    (models): ModuleList(
      (0): node_mlp(
        (layers): ModuleList(
          (0): Linear(in_features=64, out_features=32, bias=True)
          (1): Linear(in_features=32, out_features=32, bias=True)
        )
        (norm_layers): ModuleList(
          (0): BatchNorm1d(64, eps=1e-05, momentum=0.1, affine=True, track_running_stats=True)
          (1): BatchNorm1d(32, eps=1e-05, momentum=0.1, affine=True, track_running_stats=True)
          (2): BatchNorm1d(32, eps=1e-05, momentum=0.1, affine=True, track_running_stats=True)
        )
        (dropout): Dropout(p=0.3, inplace=False)
      )
      (1): node_mlp(
        (layers): ModuleList(
          (0): Linear(in_features=64, out_features=32, bias=True)
          (1): Linear(in_features=32, out_features=32, bias=True)
        )
        (norm_layers): ModuleList(
          (0): BatchNorm1d(64, eps=1e-05, momentum=0.1, affine=True, track_running_stats=True)
          (1): BatchNorm1d(32, eps=1e-05, momentum=0.1, affine=True, track_running_stats=True)
          (2): BatchNorm1d(32, eps=1e-05, momentum=0.1, affine=True, track_running_stats=True)
        )
        (dropout): Dropout(p=0.3, inplace=False)
      )
      (2): node_mlp(
        (layers): ModuleList(
          (0): Linear(in_features=64, out_features=32, bias=True)
          (1): Linear(in_features=32, out_features=32, bias=True)
        )
        (norm_layers): ModuleList(
          (0): BatchNorm1d(64, eps=1e-05, momentum=0.1, affine=True, track_running_stats=True)
          (1): BatchNorm1d(32, eps=1e-05, momentum=0.1, affine=True, track_running_stats=True)
          (2): BatchNorm1d(32, eps=1e-05, momentum=0.1, affine=True, track_running_stats=True)
        )
        (dropout): Dropout(p=0.3, inplace=False)
      )
      (3): node_mlp(
        (layers): ModuleList(
          (0): Linear(in_features=64, out_features=32, bias=True)
          (1): Linear(in_features=32, out_features=32, bias=True)
        )
        (norm_layers): ModuleList(
          (0): BatchNorm1d(64, eps=1e-05, momentum=0.1, affine=True, track_running_stats=True)
          (1): BatchNorm1d(32, eps=1e-05, momentum=0.1, affine=True, track_running_stats=True)
          (2): BatchNorm1d(32, eps=1e-05, momentum=0.1, affine=True, track_running_stats=True)
        )
        (dropout): Dropout(p=0.3, inplace=False)
      )
    )
  )
  (encoder): mixture_of_GCNs(
    (gcns): ModuleList(
      (0): GCN(
        (ConvLayers): ModuleList(
          (0): GraphConv(in=3703, out=64, normalization=both, activation=None)
        )
        (dropout): Dropout(p=0.3, inplace=False)
      )
      (1): GCN(
…
